…
f . keras . layers . Flatten (), tf . keras . layers . Dense ( 20 , activation = 'relu' ), tf . keras . layers . Dense ( 10 , activation = 'softmax' ) ]) model . compile ( optimizer = 'adam' , loss = 'sparse_categorical_crossentropy' , metrics = [ 'accuracy' ]) model . summary () model . fit ( training_images , training_labels , validation_data = ( val_images , val_labels ), epochs = 20 ) Model: \"sequential_1\" _________________________________________________________________ Layer (type) Output Shape Param # ================================================================= conv2d_2 (Conv2D) (None, 26, 26, 64) 640 _________________________________________________________________ max_pooling2d_2 (MaxPooling2 (None, 13, 13, 64) 0 _________________________________________________________________ conv2d_3 (Conv2D) (None, 11, 11, 64) 36928 _________________________________________________________________ max_pooling2d_3 (MaxPooling2 (None, 5, 5, 64) 0 _________________________________________________________________ flatten_1 (Flatten) (None, 1600) 0 _________________________________________________________________ dense_2 (Dense) (None, 20) 32020 _________________________________________________________________ dense_3 (Dense) (None, 10) 210 ================================================================= Total params: 69,798 Trainable params: 69,798 Non-trainable params: 0 _________________________________________________________________ Epoch 1/20 1875/1875 [==============================] - 6s 3ms/step - loss: 0.5161 - accuracy: 0.8153 - val_loss: 0.3862 - val_accuracy: 0.8601 Epoch 2/20 1875/1875 [==============================]
…
